…
(\n        units              = 1, \n        kernel_initializer = \"uniform\", \n        activation         = \"sigmoid\") %&gt;% \n    # Compile ANN\n    compile(\n        optimizer = 'adam',\n        loss      = 'binary_crossentropy',\n        metrics   = c('accuracy')\n    )\nmodel_keras\n\nModel: \"sequential\"\n________________________________________________________________________________\n Layer (type)                       Output Shape                    Param #     \n================================================================================\n dense_2 (Dense)                    (None, 16)                      816         \n dropout_1 (Dropout)                (None, 16)                      0           \n dense_1 (Dense)                    (None, 16)                      272         \n dropout (Dropout)                  (None, 16)                      0           \n dense (Dense)                      (None, 1)                       17          \n================================================================================\nTotal params: 1,105\nTrainable params: 1,105\nNon-trainable params: 0\n________________________________________________________________________________\n\n\n\n# fit_keras &lt;- fit(\n#     object = model_keras,\n#     x = as.matrix(x_train_tbl),\n#     #y = ,\n#     batch_size = 50,\n#     epochs = 35,\n#
…
