…
rnel_initializer = \"uniform\", \n        activation         = \"sigmoid\") %>% \n    # Compile ANN\n    compile(\n        optimizer = 'adam',\n        loss      = 'binary_crossentropy',\n        metrics   = c('accuracy')\n    )\nmodel_keras\n```\n\n::: {.cell-output .cell-output-stdout}\n```\nModel: \"sequential\"\n________________________________________________________________________________\n Layer (type)                       Output Shape                    Param #     \n================================================================================\n dense_2 (Dense)                    (None, 16)                      816         \n dropout_1 (Dropout)                (None, 16)                      0           \n dense_1 (Dense)                    (None, 16)                      272         \n dropout (Dropout)                  (None, 16)                      0           \n dense (Dense)                      (None, 1)                       17          \n================================================================================\nTotal params: 1,105\nTrainable params: 1,105\nNon-trainable params: 0\n________________________________________________________________________________\n```\n:::\n:::\n\n::: {.cell hash='deepL_cache/html/unnamed-chunk-13_426c5c47501854fb5fe9434152cbd894'}\n\n```{.r .cell-code}\n# fit_keras <- fit(\n#     
…
